checkpoints/vanillacnn.pth (torch, 237075 bytes, 4 tensors)

conv.weight f4 [32, 3, 7, 7]
000000 e0 60 0b bb 55 65 aa bc 5e 13 83 bc 30 60 be bc
       -0.0021267459 -0.020800272 -0.016000446 -0.023239225
000010 7b 2c 3f bd 26 94 2a bb dd c9 02 3d c8 5f de bd
       -0.04667328 -0.0026028245 0.031930793 -0.108581126
000020 83 67 de bd 70 c5 f4 bd 9d 9e b5 bd de 37 23 bd
       -0.10859587 -0.11951721 -0.08868144 -0.0398482
000030 f0 5f e0 bd 0f 15 a9 bd d5 4b b2 bd 8c 78 03 be
       -0.109557986 -0.0825597 -0.0870587 -0.12838954
000040 d4 99 a6 bd bd 0c ca bd 68 ea 70 bd b7 f5 9f bd
       -0.08134809 -0.09865711 -0.058817297 -0.07810538
000050 7a a6 98 bd c8 be 6f bd 20 ab c5 bc 61 5a 3c be
       -0.07453628 -0.058531553 -0.02412945 -0.18393852
000060 36 67 0a be f6 54 19 be 4b a5 38 bd 00 77 9c bc
       -0.13515934 -0.14973816 -0.04507951 -0.019099712
000070 32 52 ad bd f8 80 11 bc e4 cb fa bd 26 71 94 bd
       -0.08462943 -0.008880846 -0.1224592 -0.07248144
000080 d9 80 ab bd 0b 70 85 bd 4a 7b 8c bd 0b f3 03 be
       -0.08374185 -0.06515511 -0.06859453 -0.12885682
000090 8e 4e 73 bd 52 5e d0 bd a6 1b 09 be b7 4b 74 bd
       -0.059401087 -0.1017424 -0.13389453 -0.05964252
0000a0 ac 2f 0d be 88 25 13 be a8 70 12 bd ce 63 65 bd
       -0.13787717 -0.14369786 -0.03575197 -0.056003384
0000b0 95 d0 e3 bd 4b fc 08 be f9 06 24 be f8 b3 2a bd
       -0.11123768 -0.13377492 -0.16018285 -0.041675538
0000c0 b1 f9 f6 bd 46 98 4a 3d cd 77 d3 3c aa 7c 03 3d
       -0.120593436 0.049461626 0.025813961 0.03210131
0000d0 8f be 16 3b 99 2c 45 3d 38 34 9b 3c 85 2b fc bc
       0.0023001765 0.048138235 0.018945798 -0.03078247
0000e0 c4 8e 80 3d df e9 54 3d 1b 49 2c bc c4 d1 24 3d
       0.062772304 0.05198085 -0.010515477 0.04023911
0000f0 81 4a 3d bd 70 38 2f 3d ab 1e 5e bd c6 31 00 3d
       -0.04621363 0.042778432 -0.054228466 0.031297468
000100 a5 13 81 3d 11 0a d3 3d 7e c6 59 3d 9b de ae 3d
       0.06302575 0.103046544 0.053167813 0.085385524
000110 62 73 a1 bc 3e 66 77 3b 70 77 d4 3c c0 5c 3a bd
       -0.01970834 0.003775015 0.025935858 -0.04549861
000120 98 2c 86 3d e7 82 d4 3d 60 60 ff 3d 7a 5e 8a 3d
       0.06551474 0.1037653 0.12469554 0.06756301
000130 3f ff 75 bc 64 79 b6 3a 18 97 c0 bc d2 f5 50 3d
       -0.015014469 0.0013921675 -0.023509547 0.051015683
000140 ec c9 93 3d ed 63 8e bc 2c 4b 4e 3c 7f ac c7 3d
       0.07216248 -0.017381633 0.012591165 0.09749698
000150 7f 95 99 3d 29 88 28 3d 6a 55 c4 3d 77 bc db 3d
       0.07499217 0.041145477 0.09586604 0.10729306
000160 08 ad d1 3c 59 dd 84 3c f5 82 f0 39 7d d8 69 3d
       0.025595203 0.016218828 0.00045873938 0.057091225
000170 7c 4a fb bc 78 75 39 3d d2 8a 09 bc ad f7 83 3c
       -0.030675165 0.045278043 -0.008394914 0.016109312
000180 8b 80 05 3d 33 ba 6b 3c 66 90 47 bd de 42 d3 bc
       0.03259329 0.014387655 -0.048721693 -0.02578872
000190 ec bb 8f 3d 33 05 8a 3d ce 66 36 bc 80 58 96 3c
       0.07018265 0.06739273 -0.011132909 0.018352747
0001a0 50 20 2f 3d c4 7f a6 3b 90 3b 4b bd 20 cc 85 3c
       0.042755425 0.005081149 -0.04961735 0.016332686
0001b0 8c a9 04 bd 92 e8 87 3d 5c a5 00 3d 9f 7d 8c 3c
       -0.032388255 0.06636156 0.0314077 0.017149745
0001c0 c8 70 2c bd 2f 19 85 3d b5 d2 ad 3c 35 63 1d 3c
       -0.042099744 0.06498944 0.021218637 0.009606172
0001d0 a8 67 e7 bc db 82 b9 3d 70 3b b4 3c c5 5a 63 bd
       -0.02824767 0.09058162 0.022000998 -0.055506486
0001e0 70 dc 0b 3d 5e b6 ad 3d 04 90 da 3d 98 6e 19 3d
       0.034145772 0.084820494 0.10672 0.037458986
0001f0 e3 11 de 3d 6f 96 ba 3d 89 dd ba 3d 5b 6d 65 3b
       0.10843255 0.09110724 0.09124286 0.0035007808
000200 98 3c a3 3d 1d 4e 88 3d 55 19 e7 3c 82 50 b9 3d
       0.07970542 0.06655524 0.028210321 0.09048559
000210 92 68 12 3c 33 11 29 3d 0b c2 a4 3d 57 07 69 3d
       0.008936064 0.041276168 0.08044823 0.056891765
000220 80 7e 8b 3d 04 06 b8 3d 71 f7 14 3d 5f 34 fc ba
       0.06811237 0.089855224 0.03636879 -0.0019241682
000230 f5 f4 b4 3c cd 38 3f 3d ab 33 68 3b fe 0d 3d 3d
       0.02208946 0.04668503 0.0035431187 0.046155922
000240 5b 40 b8 3d ac 79 33 3d f4 83 38 3d 60 0e 62 bc
       0.0899665 0.043817207 0.045047715 -0.013797373
000250 c6 b8 b7 bd 1a 56 6c 3d cb 91 57 bd a8 23 b7 bc
       -0.089707896 0.0576993 -0.052629273 -0.02235587
000260 fe b7 0e bd 0b f9 c5 bc 34 d1 9f 3d 7e de c6 bd
       -0.034843437 -0.024166605 0.07803574 -0.09710406
000270 48 c7 c0 b9 65 d0 b1 bd de fd cb bd 1a d3 40 3d
       -0.0003676957 -0.08682326 -0.09960531 0.047076322
000280 04 fc c4 bc 22 64 d9 bc e0 3b 4a bd fa a5 81 bd
       -0.024045952 -0.026537005 -0.049373507 -0.06330486
000290 c9 13 88 bd 46 6e 62 bd 7d 7f 95 3d aa a8 21 bd
       -0.06644399 -0.055280946 0.07299707 -0.03946749
0002a0 d7 8c 31 bd 36 10 10 bd 56 1d b5 3d d6 65 cb 3d
       -0.043347206 -0.03517171 0.08843486 0.09931533
0002b0 37 0f 7b bc 4b 78 84 bc 36 2a 00 be d0 dc 89 bd
       -0.015323452 -0.016170641 -0.12516102 -0.0673157
0002c0 71 55 9e 3d 9f b6 6a 3d 2a ac 7f 3c 0a 73 9f 3c
       0.077311404 0.057303067 0.015605012 0.019464035
0002d0 24 3b b3 3d 03 6b e5 bc c3 63 a0 3d 41 59 c9 3d
       0.087515146 -0.028005129 0.07831528 0.09831477
0002e0 18 ff 7f bd f1 d2 3c bd b4 81 46 bd 20 31 9b 3d
       -0.062499136 -0.046099607 -0.04846354 0.07577729
0002f0 84 38 16 bc 66 5e 35 bd 53 eb 88 3c a0 19 e1 bc
       -0.009168748 -0.04427948 0.016713774 -0.02747804
000300 1e 7e 24 3d c0 e6 d5 3d 41 52 b8 bc 42 12 ac bd
       0.040159337 0.10444403 -0.02250016 -0.0840192
000310 7c 41 93 3d 30 9a 63 3d 3d 13 0d bc e7 b8 25 3d
       0.071902245 0.055566967 -0.008610544 0.04045954
000320 47 08 64 bb e7 bb 95 3d 22 49 51 bd df 03 e6 3d
       -0.0034794973 0.0731123 -0.051095136 0.11231207
000330 7e 58 75 bc 6f 7c 9d 3d 4a 51 67 3d 8a e7 07 bd
       -0.014974711 0.076897494 0.056474008 -0.033179797
000340 51 1c 3f 3d c3 f7 f2 3d f3 e6 58 bd f3 68 8e bd
       0.046657864 0.11863663 -0.052954625 -0.06953611
000350 d5 ba 0e 3d 50 1a 23 bc ca e4 d9 3b 83 b1 a7 3d
       0.034846146 -0.009955004 0.0066495882 0.081881545
000360 a2 c2 0f 3d 18 34 ee bc fa 4f 45 3d 4f c3 fc 3d
       0.035097726 -0.029077575 0.048171975 0.1234194
000370 ff 55 81 3d bb 44 39 bd 36 5a 6d bd 9b f8 f1 bd
       0.063152306 -0.045231562 -0.05794736 -0.11814996
000380 ea c3 c3 bd 20 84 7e 3d 90 01 0a 3e 7c 6a 81 3c
       -0.09558852 0.062137723 0.13477159 0.015797846
000390 42 88 d3 bd c0 cc 7e 3c 70 47 34 3d 69 f0 c1 3c
       -0.103287235 0.015551746 0.04401344 0.023674207
0003a0 e5 22 1e 3d 36 4f d7 bd ed a3 a1 bd f7 23 5c 3d
       0.038607497 -0.10513155 -0.078925945 0.053745236
0003b0 38 c8 0c 3e 0a 09 49 bd 3b 20 a5 3d dc 00 80 bd
       0.13748252 -0.049080886 0.08062788 -0.06250164
0003c0 4c de e8 bd dc 4d 29 3a ed 43 aa 3d d5 8d 48 3d
       -0.11370525 0.00064584403 0.08313737 0.048963387
0003d0 4b d4 97 bc d6 9b e4 3c b8 1e 5a bd eb bd 39 3c
       -0.018533846 0.02790634 -0.053251952 0.011336784
0003e0 6d b2 8b 3d e3 f0 19 3d 0c 54 33 bd f7 f3 fe bc
       0.068211414 0.037583243 -0.043781325 -0.03112219
0003f0 0e 24 cd 3d 7a 3c 2c bd 53 26 1b 3d cf f2 4e bd
       0.100166425 -0.042049862 0.037878346 -0.05052453

conv.bias f4 [32]
000000 64 f5 09 3e 62 ec 03 3d 82 c3 84 be bd 4b ac be
       0.13472515 0.032207854 -0.2593041 -0.33651534
000010 c0 f4 cb bd cd 8c 78 bd b7 b2 87 be 64 f8 92 bd
       -0.09958792 -0.060681153 -0.26503536 -0.07176283
000020 46 8d 13 bc 16 32 60 be b6 3d 8a 3d cc 43 c9 bd
       -0.00900585 -0.21894106 0.06750052 -0.09827384
000030 7a b6 b4 bd 5f 6a ad 3e ee f8 85 3e da b8 62 3e
       -0.08823867 0.33870217 0.2616648 0.22140828
000040 70 df 84 be d8 1c 80 be d5 9d 80 bc 3e 7c a1 bd
       -0.2595172 -0.25022006 -0.01570026 -0.078850254
000050 fb 58 39 bd 5a f2 c4 be 35 ee ff 3c 82 f0 c8 be
       -0.045250874 -0.3846615 0.031241516 -0.39245993
000060 b6 c4 95 bd 5e 6b 50 be 17 64 2a bd bd d3 82 3c
       -0.0731291 -0.20353457 -0.04159936 0.015970105
000070 ce 7c 7d be 5f 4e 2d be 9b 61 c7 be a1 9b a9 3d
       -0.2475464 -0.16924427 -0.38941655 0.08281637

fc.weight f4 [10, 5408]
000000 53 3c b6 3c 8b c9 b7 3c 42 c5 c5 3c 71 e0 2e 3c
       0.022245562 0.02243497 0.024141911 0.010673628
000010 4c 0b 2c 3c e2 f8 81 3c 7b 19 5a 3b 84 66 f5 ba
       0.01050074 0.015865747 0.0033279348 -0.0018722569
000020 5a 1c 18 3c 6b d9 8e 3c 1d 23 8c 39 91 31 dc 3c
       0.009284103 0.017437657 0.00026729042 0.026879104
000030 4e cb 82 3c ce a7 ed 3c e6 c1 14 3c a2 e2 8b 3b
       0.015966084 0.02901068 0.009079432 0.00426896
000040 dd d3 8d 3c 69 f1 56 3b 8b a1 4d 3c e7 9e ec 3b
       0.017312938 0.00327977 0.012550722 0.007221091
000050 d9 79 e4 bb f7 86 c3 bb d0 21 45 bb a4 7c 37 3c
       -0.006972533 -0.005967017 -0.0030079968 0.01119915
000060 4e 4f 9b 3a 03 1a 91 3c f6 f6 b8 3c 76 4e 25 3c
       0.0011849196 0.017712599 0.022578698 0.010089507
000070 11 49 33 bc f2 5c 0a 3c 71 ae 2b 3b 93 77 63 3c
       -0.010942713 0.008445011 0.0026196504 0.013883489
000080 c6 95 8e 3c 63 fa 46 3c 20 e4 85 3b 1c ec 6b 3b
       0.017405402 0.012144658 0.0040860325 0.0035998886
000090 43 1c 04 3b bb 55 58 bb f3 25 39 3c 2a 5f c2 bb
       0.0020158447 -0.0033010084 0.011300552 -0.0059317546
0000a0 48 46 13 bc ee 0b 1b 3c b1 be 73 3c a1 f2 6f 3c
       -0.008988924 0.0094632935 0.014877007 0.01464525
0000b0 96 21 fa 3c 64 5c 68 3c a2 a0 8d 3c fa 23 3e 3c
       0.030533593 0.014182184 0.01728851 0.011605257
0000c0 5e 4d 02 3c 97 60 50 3c 57 3d e1 3b 6e e1 11 3a
       0.007953016 0.012718341 0.0068737674 0.00055649027
0000d0 ba 1b f3 ba 23 30 7a bb 22 d5 e5 bb dd 09 be 3b
       -0.0018547692 -0.0038175664 -0.007013933 0.0057995156
0000e0 a8 de 2b 3b a7 d3 f4 3c 96 0f 22 3d a5 0c 01 3d
       0.0026225243 0.02988608 0.039565645 0.0315062
0000f0 2d cb a1 3c 03 2f 03 3c 03 2f 58 3c 14 09 15 bc
       0.019750202 0.008006814 0.013194802 -0.009096403
000100 dc 4e 8b bc 6a 22 d4 3a 95 ca 90 3b 5d b6 b8 bb
       -0.017005377 0.0016184573 0.004418681 -0.005636974
000110 42 84 9c 3b 25 e1 f4 3c d5 93 06 3d 41 95 14 3d
       0.0047765085 0.029892514 0.032855827 0.036275152
000120 d0 43 7c 3c e9 1e 9f 3c 8e 32 e6 3b b8 e4 2f bb
       0.015397027 0.019423919 0.0070250696 -0.0026839208
000130 29 e5 05 bc 80 f8 c0 bc ec ee 8a bc e6 dc 84 bb
       -0.008172312 -0.023555994 -0.01695963 -0.0040546535
000140 a5 a6 2b bc 47 9d fc bb d0 39 0e 3c 60 32 a6 3c
       -0.010476743 -0.0077091786 0.008680776 0.020287693
000150 dd 41 f2 3c 35 47 ee 3c d8 6a 59 3c 87 1f 8a 3c
       0.029572422 0.029086689 0.013270102 0.016860737
000160 b1 42 69 3a 32 a6 76 3a 49 e2 0d bc ae ab 1d bc
       0.00088981824 0.00094089203 -0.008659908 -0.009623451
000170 4f ab 42 bc b3 e8 86 bc 46 7a d3 3a 7a 52 ad 3b
       -0.011881663 -0.016468382 0.0016134463 0.005289373
000180 f2 a6 1d 3c 9e 68 51 3c dc cb f7 3c b2 65 96 3c
       0.009622322 0.01278129 0.030248575 0.018359039
000190 51 c3 75 3c 67 53 0a 3a 14 57 01 bc c0 ce 07 bc
       0.01500018 0.000527671 -0.007894296 -0.008289039
0001a0 ad da 45 bc 68 36 b8 bb 16 84 6b bc 34 6e a8 bb
       -0.012076062 -0.00562172 -0.014374753 -0.0051400904
0001b0 63 b1 60 bc 37 ff 25 3c 3b 24 c2 3c 49 a9 a8 ba
       -0.013714167 0.010131649 0.023698917 -0.0012867834
0001c0 73 5a 93 bb 19 22 83 3c 90 7c 1e 3b 0f ae b9 bb
       -0.0044968664 0.01600747 0.0024183132 -0.0056665014
0001d0 b5 0f 35 bc 9a 26 f8 bc f9 20 62 bc bf fe 89 bb
       -0.011051108 -0.030291844 -0.013801807 -0.0042112763
0001e0 32 d2 33 bc 00 9b 18 bc fe 3b 6d 3b 8b 88 2f 3c
       -0.010975407 -0.009314299 0.0036199088 0.010713707
0001f0 3c 8a a3 3c bd fe 69 3c 41 23 90 b9 cb 5a 16 39
       0.019963376 0.014281926 -0.00027492087 0.00014338938
000200 08 7b be bb 61 c1 e8 bc 1c 4d d5 bc 3a 5f 46 bc
       -0.0058130063 -0.028412523 -0.026037745 -0.012107665
000210 ef 4b 76 bc 84 47 ab 3a 50 23 3f 3b 8a 40 93 3c
       -0.015032752 0.0013067578 0.0029165335 0.01797511
000220 6f 6f a0 3c 66 e4 ad 3c 8f 75 e4 3b 15 ef 2d 3c
       0.019584386 0.021227073 0.006972022 0.010616084
000230 17 b8 54 3b e4 fc 0a bc 01 b0 83 bc 98 b8 0b bd
       0.003245836 -0.008483145 -0.016075136 -0.03411159
000240 49 7a e2 bc dd 17 0d bc ee cb 6a 3b 6c ea 64 3b
       -0.0276462 -0.0086116465 0.0035827118 0.0034929765
000250 54 0a b8 3c 1a 74 70 3c 47 e1 21 3c 30 f3 ad 3b
       0.022465862 0.014676118 0.00988037 0.005308531
000260 4e f7 bc b9 34 c9 17 bc 93 d4 cf bc c6 a9 ba bc
       -0.0003604241 -0.009264279 -0.025369918 -0.022786032
000270 f5 51 76 bd ad 1e 31 bd de 24 9e bc fb 68 bc bc
       -0.060136754 -0.043242145 -0.019304689 -0.022999277
000280 c2 62 23 bc 0a b2 82 3a 67 4a fc bb 3f 02 04 3c
       -0.009972276 0.0009971273 -0.007699299 0.008057176
000290 cc 22 f0 3a e2 c3 bf bb ec 47 a3 bc 35 2b 35 bd
       0.0018320917 -0.0058522085 -0.019931756 -0.04423066
0002a0 87 c9 3d bd d3 42 78 bc 37 71 2a bc 45 bf 52 bc
       -0.04633477 -0.015152651 -0.010402969 -0.012862985
0002b0 2f fe 36 bc e0 03 84 bc 5f 7e 36 bc 15 38 8d bb
       -0.0111690005 -0.016115129 -0.011138528 -0.004309664
0002c0 be b6 58 bc 53 0d 96 bc 82 95 41 bc 46 73 36 ba
       -0.013227163 -0.0183169 -0.011815431 -0.0006959926
0002d0 f6 8b a3 3c 37 a9 fe 3b 1e 43 a3 bc a8 9e 4d bc
       0.0199642 0.007771637 -0.019929465 -0.012550034
0002e0 21 32 b2 bc 25 17 8a bc f4 37 ba bc 02 4d d0 bc
       -0.021752419 -0.01685674 -0.022731759 -0.025427345
0002f0 7b 0f c8 bc 52 a2 af bc 4a ac af bc 80 5e a6 bc
       -0.024421444 -0.021439705 -0.021444459 -0.020308733
000300 5b 91 63 bb ae df 6d 39 0e 5b de b9 69 81 80 3b
       -0.003472409 0.00022685408 -0.0004241098 0.003921677
000310 fc f6 ff 3a ef 9e 81 bb 1d cc 91 bb fc 3e 45 bc
       0.0019528563 -0.003955714 -0.004449381 -0.012038942
000320 a7 1e ec bc c6 ec d2 bc 11 da bb bc 5d b0 a6 bc
       -0.02882321 -0.025747668 -0.02293113 -0.020347768
000330 22 e1 51 bc 84 e8 51 bc 49 b3 05 ba 4a 02 81 3c
       -0.0128100235 -0.012811784 -0.0005100263 0.015748162
000340 98 ca 15 ba 52 62 8f 38 89 0f 0b bc d8 8b 0e bc
       -0.0005714088 6.837085e-05 -0.008487591 -0.008700334
000350 81 df 75 bc 96 7a 1b bc c2 6a fc bc 36 c7 d7 bc
       -0.015006901 -0.009489676 -0.030812625 -0.026340108
000360 44 85 2b bb 2e 4d 80 3b 00 f8 51 3c 9b 9a d9 3c
       -0.0026171962 0.0039154505 0.012815475 0.02656298
000370 24 c8 8e 3b 73 d8 09 3c 21 40 23 3b 46 a4 2b 3c
       0.0043573547 0.008413422 0.002491005 0.010476178
000380 0b 46 a2 3b 51 1f 34 bb 27 b4 2d bc a4 4b f0 39
       0.0049521974 -0.0027484486 -0.010602034 0.00045832724
000390 5e 8b 72 3b c2 1f b2 3b 8b 07 2d 3c 99 cb db 3b
       0.003700934 0.0054359147 0.01056088 0.0067076203
0003a0 c0 c9 07 3c ee 65 29 bc 1a 46 21 bb aa 69 8e 3c
       0.008287847 -0.010339243 -0.0024608434 0.017384369
0003b0 17 4d e9 3b da 1c 36 3c 1d 76 a3 3c c4 c2 29 3c
       0.0071197855 0.011115277 0.019953782 0.010361377
0003c0 77 ec c1 bb fc b2 25 3b d6 f0 01 3c 78 18 1f 3c
       -0.0059180814 0.0025283685 0.007930955 0.009710424
0003d0 62 cd 20 3c 8d b6 c4 3c d9 0a 53 3c a4 22 c9 bb
       0.009814592 0.024012828 0.012881004 -0.0061381627
0003e0 80 d2 6c 3c 26 05 a6 3c 85 6d 85 3c a3 53 dd 3c
       0.014454484 0.020266127 0.016287575 0.02701742
0003f0 6c 09 20 3d 8b cf 1f 3d f1 c8 b4 3c ba 03 cf 3c
       0.039071485 0.039016288 0.022068473 0.025270332

fc.bias f4 [10]
000000 65 68 95 bc c0 26 9d bd 0e de 77 3d 94 13 d5 3c
       -0.018238256 -0.076734066 0.060514502 0.026010312
000010 92 ae ad 3d 3c a8 2a bc 73 0a 0a bc f9 13 16 bd
       0.08480562 -0.010416087 -0.008425343 -0.03664014
000020 e7 eb 82 3d ad b1 be bd
       0.06392651 -0.09311233
