checkpoints/vanillacnn.pth (torch, 237075 bytes, 4 tensors)

conv.weight f4 [32, 3, 7, 7]
00000000: 3616 db3d 0933 5dbd b608 dabd 68b7 28bd
00000010: 227b 7b3d 67f9 26bd 359b f33c c762 a83d
00000020: 9435 6c3d 55d5 efbc 456d acbd 5646 a0bd
00000030: a4ac 103c 864e 9cbb 0ae2 843d c31e 843d
00000040: ebb1 053e 9e00 a83d 647f 28bd 4711 83bd
00000050: b469 d3bd 6eec 97bd 7d99 823d 8d04 6fbb
00000060: a046 b93d d574 e13d 793d cabc d70c 30bd
00000070: d07b 2d3c 5f57 da3c b18b 93bd 9e51 293d
00000080: 2a12 2e3c d68a 313d 204a 40bc 4c2a 86bd
00000090: f2de 963d 12cd 2c3d e061 b0bd 0849 073d
000000a0: 65ea d13d de46 8a3d 47e3 89bd e4c4 803d
000000b0: b62e f33c dbed d2bd ed8d 85bc b06a 37bc
000000c0: 50a0 183c 7a20 863d 8dec af3b 4ae3 e2bd
000000d0: 0efe 8e3c 2b9f e1bc 2c23 0cbd c674 9d3d
000000e0: ae29 02bd 13e5 ed3d d751 003d 2afb 783b
000000f0: 2fee 24bd df86 b4bd f69f 573c 25af babd
00000100: cf25 d83d 7b5a 213d b407 2dbc 9b21 29bd
00000110: b65b d4bd 1fa6 c4bd a9db e1bd 286b 8f3c
00000120: 82b2 dbbc e0d0 8c3d ce1e c13d d6df cabc
00000130: e974 7f3c a3ca f4bd 53bf 013c f2f4 e13a
00000140: adb4 a0bd a95b e13d 8609 b83d 752d 0dbc
00000150: d75a 2ebd 3a80 edbb 6071 edbc 360a e0bd
00000160: 2c92 a93d 0ac9 8e3d 0b23 c0bc 5444 a0bd
00000170: 91c9 0e3d 1f42 a93c 03da e7bd a42e 3dbd
00000180: f0af 193d 5e63 dbba 15e5 5e3d bc79 a63a
00000190: 083d b5bd 7116 92bd b7a6 f03a bb85 b43d
000001a0: 4990 b23d 389d fd3c 6840 853d 03f7 943c
000001b0: c58e c3bd 5bd6 bb38 9f1c 4dbd d661 813c
000001c0: ec1d c1bc 999a 6f3d 0dc7 be3d d07d 6b3d
000001d0: 86ab 8dbd 17cd 48bd 8b09 8abd 1ec2 0abd
000001e0: c4a4 a9bd 1049 be3d e05a 043e e1ca 093e
000001f0: da59 5a3c 5929 c4bc f3e7 ffbc 4d5a f5bc
00000200: 1c9e d8bd 3cf1 163d c268 b23d 4810 343c
00000210: 0520 993c 964d cebd 3cfd c93c bb88 bbbd
00000220: bb36 fabd 7a05 683d 4c81 84bc ccf5 14bc
00000230: c191 6d3d 95bd b23d 6e18 8ebd ff7e f03b
00000240: 181e 96bd 459e 8b3d 9b01 cfbc 3a1c 01bc
00000250: a5b6 4fbd 2e6b 033d 4de8 103d 14a2 74bc
00000260: 65c2 57bd 39d2 0ebd b3af 24bd 6b97 1b3d
00000270: 69d2 5abd a755 65bc 1630 913d ed2f 873c
00000280: be5c e73b fde3 c43c f252 06bd e1d6 babd
00000290: da9a b7bd 7f21 26bd fd96 9e3c e241 5cbc
000002a0: fcd7 623d 5caf 393d 45e7 92bd a2e4 c33b
000002b0: f23a 3abd 286b 92bc 66a0 b23d fbff 5abd
000002c0: 7412 673d 5109 2d3d 9688 9dbd b3ca 39bd
000002d0: dcd1 9dbd d308 103c d9e5 bd3d 8b7c b43c
000002e0: f91b 44ba 98e0 ee3c 4fde 033c 1b73 0dbd
000002f0: e5a2 a6bd 4baf fb3d 83ff bc3c eb69 cd3c
00000300: ebf5 5b3c 561b 933c 4847 56bd a000 dbbd
00000310: 799b aebd edc2 28bd 40e0 853d 9114 e639
00000320: d9ea 5abd 2b08 163c 7504 12bd 2b23 adbd
00000330: ba01 7fbd e262 6dbb 773d 893c 486f b23d
00000340: c9c5 943d ba40 fb3c c668 aabc 48d5 85bd
00000350: 70d1 ddbc 7383 dfbd 61c6 763d ad66 0f3c
00000360: df1f 723d 77d7 4c3d 2689 35bd 5175 aebd
00000370: e190 243d 56a1 1dbd 98f3 ff3c 802a 743d
00000380: 7377 91bd c378 673c 1348 89bd 680c a43c
00000390: c7c4 45bd c568 f73c 6a9c e53c 3004 bc3d
000003a0: b36b b8ba f134 0b3d a62e 783d 61a8 29bd
000003b0: f8e0 abbd 9a7f 8bbd 8897 3fbc a429 d43d
000003c0: ddcf e23c 92cb 633d 0529 0cbd ef95 d9bc
000003d0: 512c f0bd e525 78bd 390e 2ebd 4d26 823d
000003e0: f3fe d33d 21ef 853d 87b1 943c 1f06 553d
000003f0: 22b6 6f3b bee7 e4bc e8f6 a7bd 7b4c ef3c
0.10697596 -0.05400375 -0.10646193 -0.041190535 0.061396725 -0.040765192 0.029737094 0.08221965
0.057668284 -0.02927653 -0.08419279 -0.078259155 0.008830223 -0.004770103 0.06488426 0.0645118
0.13056152 0.08203243 -0.041137114 -0.0639978 -0.10322896 -0.07418142 0.06376932 -0.0036471218
0.09046674 0.11008612 -0.024687516 -0.042980995 0.010588601 0.02665299 -0.072043784 0.0413376
0.010624448 0.043345295 -0.011736423 -0.06551036 0.07366742 0.042187758 -0.08612418 0.033028632
0.10249785 0.06751798 -0.06732803 0.06287554 0.02968536 -0.102992736 -0.016303027 -0.01119487
0.009315565 0.06549163 0.005368775 -0.11078508 0.017455127 -0.027541718 -0.03421323 0.076882884
-0.03177803 0.11615958 0.03132805 0.0037991502 -0.040266212 -0.08814787 0.013160696 -0.091154374
0.105540864 0.03939293 -0.010560919 -0.041291814 -0.10369055 -0.096019976 -0.11028225 0.01750715
-0.026818518 0.06875777 0.09429704 -0.024764936 0.015591838 -0.119527124 0.00791915 0.0017239137
-0.07846961 0.11003811 0.089861915 -0.008616795 -0.0425671 -0.007247952 -0.028984725 -0.109394476
0.08279833 0.06971939 -0.02345421 -0.078255326 0.034860197 0.020661412 -0.11320879 -0.046187058
0.037521303 -0.0016737988 0.05441769 0.0012701075 -0.088495314 -0.071331866 0.0018360232 0.088145696
0.087189265 0.030958757 0.06506425 0.01818419 -0.095487155 8.956782e-05 -0.050076123 0.015793722
-0.023573838 0.058497045 0.0931531 0.05749303 -0.06917481 -0.049023714 -0.067401014 -0.03387653
-0.0828338 0.09291279 0.12925291 0.13456298 0.013327086 -0.023945497 -0.031238532 -0.029950285
-0.10577032 0.036851153 0.08711387 0.01099021 0.018692026 -0.10073392 0.024656884 -0.09156939
-0.1221747 0.056645848 -0.016174935 -0.009091806 0.05800033 0.08727566 -0.06938253 0.007339358
-0.07329959 0.06817297 -0.02526932 -0.007880265 -0.050711293 0.032084636 0.03537779 -0.014931221
-0.052675623 -0.034868453 -0.040206622 0.0379862 -0.05342332 -0.013997472 0.0708925 0.016502345
0.0070606163 0.024034495 -0.032793947 -0.09123016 -0.089650825 -0.040559288 0.019359106 -0.013443442
0.05538176 0.04533325 -0.071730174 0.005978183 -0.04546637 -0.017873362 0.08722 -0.05346678
0.056414083 0.042245213 -0.07692067 -0.045359325 -0.07706043 0.008791166 0.092723556 0.022032043
-0.0007480975 0.029159829 0.008048608 -0.0345336 -0.081365384 0.12289294 0.023071056 0.02507492
0.013425331 0.01795737 -0.052314073 -0.106934786 -0.08525748 -0.04120152 0.06536913 0.00043884342
-0.053446624 0.009157221 -0.03564878 -0.084539734 -0.062257506 -0.0036222269 0.016752942 0.087126315
0.07264287 0.030670512 -0.020801913 -0.06534821 -0.027077407 -0.10913744 0.060247783 0.008752507
0.059112426 0.05001017 -0.044320248 -0.0851847 0.04017723 -0.03848394 0.031244084 0.059610844
-0.07102861 0.014127913 -0.067032 0.020025447 -0.048283365 0.030201325 0.028028686 0.09180486
-0.0014070183 0.033986036 0.060591362 -0.041420344 -0.08392519 -0.068114474 -0.011693843 0.10359505
0.027687008 0.05561406 -0.034218807 -0.026560752 -0.11727203 -0.060583014 -0.042494033 0.063549615
0.10351362 0.06539751 0.018151058 0.05200779 0.0036577065 -0.027942535 -0.082013905 0.029211273

conv.bias f4 [32]
00000000: dea7 4ebe 7fdc 9fbd 0f25 073e c135 00bd
00000010: 42a6 f1bd 723d fdbd 477c 8e3e 381a cf3d
00000020: fd85 40bd d3a4 8dbe 4532 81be cab9 813e
00000030: 8a91 7cbe 073c 6cbe ac5e 43be 7e45 f1bd
00000040: 136a 2abe dc99 76be 9b72 593d 5098 2bbe
00000050: ba03 4e3d 04ec 5bbe 67ce 79be b679 5dbe
00000060: 8880 7d3e d983 a4bc d8bd debd e85a 1cbd
00000070: df9c 1abe 86cc 4cbe 20bb bcbe 6c38 1dbe
-0.20181224 -0.07805728 0.1319773 -0.031301264 -0.11799289 -0.123652354 0.2782919 0.10112423
-0.04700278 -0.27664813 -0.25233665 0.25337058 -0.24664894 -0.23069774 -0.19079083 -0.11780833
-0.16642027 -0.2408213 0.053087812 -0.16757321 0.050296523 -0.21476752 -0.24395142 -0.2162846
0.24756062 -0.020082401 -0.108760536 -0.038172632 -0.15098904 -0.19999894 -0.36861515 -0.15353554

fc.weight f4 [10, 5408]
00000000: b9ae 6a3c 71b7 e33b 1408 2f3c 8e80 12bc
00000010: 0c10 61bc b2a7 863b 7273 86bb d2c8 ccbc
00000020: 73e9 babc dec3 9fbb 551b 9abc fe37 8ebc
00000030: 302b 1ebb 3f1e cc3c a883 f13b ea12 8f3c
00000040: 22c8 d43a 3199 74bc 1776 91bb 1ae5 b3bb
00000050: e203 80bc c184 e8bc f475 87bc 15ea a3bb
00000060: 0d99 0fbc 983f f4bb 0cd7 c93c cfbf e63c
00000070: aa3d 553c a205 1ebb 47eb 49bc 2c40 d2bb
00000080: 73c7 b9bc e277 9dbc 3985 abbc 42b2 7fbc
00000090: 1480 09bd 61b2 c7bc 17d8 0e3c eedc c33c
000000a0: dd5c 4b3d 677e f53c 2fbe a73c 6950 853c
000000b0: 976b 733b bd6c d6bc 93bb 5ebc eec2 60bc
000000c0: 8781 14bd 12cc 86bc 403c 91bc ea05 6d3b
000000d0: e295 1f3d bf61 173d 7dfa b73c 25b3 1a3d
000000e0: c921 a93c 7f02 033c ad5b 63bc 8040 b2bc
000000f0: 4dc0 dcbc f834 afbc 44db 00bd 005f 3dbb
00000100: ed9e febb 19e6 083d 0a36 253d 6c29 213d
00000110: 3a68 303d 19f8 cf3b 3e0e 4b3b 827b 833b
00000120: 4e2b 0ebc a610 6cbc 42a0 ddbc 18ed b4bc
00000130: e62c 5ebc 43e4 76bc 4fc2 2d3d 77f8 1d3d
00000140: ea99 1a3d dd22 e93c 02ee 8a3c 40b5 c0ba
00000150: 6278 1f3b 2025 353c 736d 0b3c 86eb 29bc
00000160: b6de 19bc edbc 00bc 469a 6ebb 10f6 603c
00000170: efad c73c 7358 723c 4336 163d 318a 623c
00000180: 7b18 8a3c 54f3 303c 9b81 d13b 4937 253c
00000190: b27b 143c 21e0 a3ba 15ba 0c3c 88c9 1d3c
000001a0: a0ba f73b 5866 773c 7a56 8b3c 117e 073c
000001b0: c727 353c b5df a63c 8d32 953c ebe6 743c
000001c0: 2a6b 923c 3475 ba3a 0a4b 773c e0fa a13c
000001d0: a4ec 5b3c 4cb1 c1bb 17c6 1a3b ce37 1bbc
000001e0: 8606 acbb 52b7 973b f0ce 333c 4b80 f63a
000001f0: 1346 133c d970 873c b546 b43c 77f1 a63b
00000200: f90d 183c 273d c33b 9012 9dbc 2b20 66bc
00000210: 7596 54bc a0df 9cbc 6a1a 98bc b11d 2fbc
00000220: 772a cc3a 21ad a2bb 9c8a 193c 0503 943a
00000230: 16bc dabb 3007 073c f9c9 55bc 5504 bbbc
00000240: 7f33 c2bc b176 bdbb 2865 06bc 3aef 70ba
00000250: 40d0 38bc b03d 133c 3085 6f3c abd2 babb
00000260: 30c4 a43b 8aa3 9c3a f6fb 133b 4335 1a3c
00000270: 955b d0bb 46bf fbbb f9a9 e0bc f5ac e6bc
00000280: efdb 88bc 4745 59bc c877 0dbc 9d2a 4cbc
00000290: bab2 983a 8f60 b7bb 9f1a 083c 5663 8b3c
000002a0: 2db9 c63b b5ac 1ebc d15f 5c3b a6c4 013c
000002b0: 4f8e 8f3b c087 82bc 4ff3 96bc 5e1c d33b
000002c0: 9b2b 6fbc fb13 a9bb 6086 03bd 3c53 ffbc
000002d0: ddbb 16bc f133 35bb 0f4b a4bb d756 9abb
000002e0: fcf0 9c3c dd9d 4a3c 2963 25bb ab0d 003c
000002f0: bfeb a9bb abc3 88bb 991e 06bc e3a9 32bc
00000300: 78a0 81bc 4950 97bc 386f 7cbc ef52 d1ba
00000310: 1b69 f93c 465b f23c 10b1 c53c 6b13 b23b
00000320: 97a2 923b 07d1 793c a518 023b a5bc f3bb
00000330: 86a4 86bc ef59 f9bc 5797 8bbc 2d82 48bc
00000340: 49b8 9e3b 2cd1 8d3c d7b1 c13c 8090 193d
00000350: 1276 c23c 3944 3c3c 9a2f f53c 99e9 7939
00000360: fdf1 95bb 3266 8cbc e471 debc 2f21 3ebc
00000370: f5ba 42bb bfd1 b53c 65a0 f33c da4c a73c
00000380: 70cc 153d d1b1 ab3c aef1 fe3c 4b86 153c
00000390: 2eeb 573c d764 f23a 7a61 b83b 4ff6 86bc
000003a0: 690c 5fbc e76d 5dbc f204 013c a412 2f3c
000003b0: 5380 8d3b 5b56 cc3c 0b0e 143d a948 c23c
000003c0: fd9c 0c3d f676 803c e8da 453c 4cac 7dbb
000003d0: 88c3 d6bc e2cb cbbc bd4d 76bc a85b 39bc
000003e0: d4ed dab9 e91a 5f3c 714a 673c 4b50 a53c
000003f0: 6d0b fd3c ef1b 793c f682 6b3c 8093 e23a
0.014323884 0.006949358 0.010683078 -0.008941783 -0.013736736 0.0041093463 -0.0041031176 -0.024998102
-0.022816395 -0.004875644 -0.018811861 -0.017360684 -0.0024134628 0.024916766 0.007370431 0.017465074
0.0016233961 -0.014929102 -0.0044391262 -0.0054899575 -0.015626851 -0.028383614 -0.016535737 -0.00500227
-0.0087645175 -0.00745387 0.024638675 0.028167633 0.01301519 -0.0024112244 -0.012324161 -0.0064163413
-0.022678113 -0.019222204 -0.020937549 -0.015606465 -0.03356941 -0.02437705 0.008718512 0.023909058
0.04964911 0.0299675 0.020476429 0.016273694 0.0037142986 -0.026174897 -0.013594526 -0.01371835
-0.03625634 -0.01645473 -0.017728925 0.0036166855 0.0389613 0.036958452 0.02245831 0.0377685
0.020645993 0.007996201 -0.013876838 -0.021759272 -0.026947165 -0.021387562 -0.031459108 -0.0028895736
-0.0077704103 0.033422563 0.04033474 0.039346144 0.04306815 0.006346714 0.003098383 0.004012526
-0.008677317 -0.014408266 -0.027053956 -0.022085711 -0.013560509 -0.01506907 0.042421635 0.038567033
0.03774444 0.028459007 0.016959194 -0.0014702454 0.0024333228 0.011056215 0.008509981 -0.010371095
-0.009391477 -0.007857543 -0.0036407872 0.013730541 0.02437493 0.014791596 0.03667284 0.013826893
0.016857376 0.010800201 0.006393624 0.010083982 0.009062694 -0.0012502709 0.008589287 0.009630568
0.007560089 0.015100084 0.017009009 0.008269803 0.011056847 0.020370344 0.018212581 0.014947633
0.017873365 0.0014225603 0.015093574 0.019772947 0.013423119 -0.005911028 0.0023616606 -0.009473754
-0.005249801 0.004630008 0.010974631 0.0018806545 0.008988875 0.016533302 0.022006372 0.005094703
0.009280675 0.0059582177 -0.01917389 -0.014045755 -0.012975325 -0.019149601 -0.018567283 -0.010688231
0.001557662 -0.004964486 0.009371426 0.0011292404 -0.0066752536 0.00824146 -0.013048642 -0.022829214
-0.023706196 -0.0057819714 -0.0082028285 -0.0009190921 -0.011280119 0.008986875 0.014619157 -0.005701383
0.00502827 0.0011950594 0.00225806 0.009412113 -0.0063585737 -0.0076827137 -0.0274248 -0.028158644
-0.016706435 -0.013261146 -0.008634515 -0.012461332 0.0011649944 -0.0055962275 0.008307128 0.01701514
0.006064555 -0.009684731 0.0033626447 0.00792042 0.004380978 -0.015933871 -0.018426565 0.0064425906
-0.014597799 -0.0051598526 -0.03211057 -0.031167619 -0.0092000635 -0.0027649368 -0.0050138305 -0.004710059
0.019157879 0.012366739 -0.0025236106 0.007815759 -0.005185574 -0.004173716 -0.008186006 -0.010904762
-0.015823588 -0.0184709 -0.015407376 -0.0015970151 0.030445626 0.029584538 0.024132282 0.0054344437
0.0044749486 0.01524759 0.0019851115 -0.0074382597 -0.016435873 -0.030438391 -0.017039938 -0.012238068
0.004843746 0.017311655 0.023644371 0.03749132 0.023737941 0.011490875 0.029929925 0.00023833512
-0.0045759664 -0.017138574 -0.027153917 -0.011604591 -0.0029713486 0.022194741 0.029739568 0.020422388
0.03657192 0.020958813 0.031121101 0.009126256 0.01317863 0.0018493187 0.0056268545 -0.016474871
-0.013613799 -0.013514972 0.007874714 0.010685597 0.004318276 0.024943521 0.036146205 0.023716288
0.034329403 0.015681725 0.012076117 -0.0038707433 -0.026216283 -0.024877492 -0.015033183 -0.011313356
-0.00041757396 0.013617256 0.014116869 0.020179888 0.030889237 0.015204414 0.014374485 0.001728639

fc.bias f4 [10]
00000000: c098 0dbc 54cb aabd 2b99 6d3d ca56 9a3c
00000010: 98e1 b13d 892c 903b 8428 24bc c736 52bd
00000020: c652 6c3d 5809 b8bd
-0.0086423755 -0.08339563 0.0580074 0.018840212 0.08685607 0.0043998403 -0.010019425 -0.05132177
0.057696126 -0.08986157
